L_CAM_VGG16/imagenet_epoch_7_glo_step_2161.pth.tar (torch, 11240 bytes, 4 tensors)

attnM.op.weight f4 [2, 512, 1, 1]
00000000: 0857 1a3d 3893 38be a1a6 f63c 5475 8d3c
00000010: bf4f 3cbe d9ea 9b3c d656 1cbe 10eb fabd
00000020: b786 cbbd 43e1 99bd 46d5 1fbd a733 62bd
00000030: 631f fdbd 4601 37be 19ce 66be e34c d5bc
00000040: 33a7 b9bd 5b6f 3abe 8792 52bd 4952 2fbe
00000050: 366f 6fbe 40e1 10be 50c5 aabc e02f 44be
00000060: b773 08bc 7c7e 08be 9ffe 50be d406 5dbd
00000070: 46fc 31be 3f35 e2bc 9641 07be 1b52 79be
00000080: c306 3b3c 5928 dfbd a635 b8be 0f14 efbd
00000090: 7f1f 84bd b4d3 6abd 8e5b 4dbd cbbc 27bd
000000a0: 72fa edbd 8ddf cdbb 73df 24bc e62c f3bd
000000b0: 4f5d bebd 1ec9 f3bd 9706 00be c3d5 17be
000000c0: e003 32be f658 463d c618 29bd a1ca 0f3a
000000d0: 3efd 83be 1e46 41bd 94e1 97bd 8ed7 e9bd
000000e0: 65b4 b7bc 307f 0fbd 021b 1abe 3243 81be
000000f0: 7bba 09be b56f b8bd 5ac2 e5bd 6489 1fbe
00000100: ebfd acbc 03f4 0abe adb2 71be 8932 7ebd
00000110: b3d1 e0bd 6429 6ebd 05bb 7abd 0abd 353b
00000120: d4d4 86bd 3568 073d 566c 57bd 2330 33bd
00000130: 98e8 28be ff22 42be 4d2b f7bc f351 b7bd
00000140: 0a4e adbd 120e eb3c cbad 21be ebb8 a6bc
00000150: 303c 9b3b 816a f2bd 0c0e 35be 18dd 52bc
00000160: 5785 64be c86e f7bd 26bb b43b 840e a5bd
00000170: 1966 18be ebbd 2fbe 9605 8ebd 73d9 a6bd
00000180: 6352 f7bd 92f3 2ebe 6bd3 38be 00ea ebbc
00000190: 18bb 16be 31d5 dcbd 7fbc 9bbe 827c 6cbd
000001a0: 7dff 12be c8b3 35bd e513 98ba fe6a 89bc
000001b0: cf4e 0bbe 9eb0 0abe 0ceb 21be bb1e b5bd
000001c0: d0e7 393d 7a78 cdbd 795c 5abd 0c2f 1abd
000001d0: e66c 24bd e086 1ebe de7b 8fbe 5d4e 19be
000001e0: 5034 4fbe 7fad 3dbe ad0b 04bd 1073 e9bd
000001f0: 03f8 e6bc eaaf 03bd 5c96 bd3c 00ba 0ebb
00000200: 4fd9 06be 8073 b0ba 5d3e 6dbd 59ac fbbd
00000210: 38de c2bd 278d eabc a82b 02be 262e 1bbe
00000220: f385 36be a973 63be e6b0 adbd 1bb0 34be
00000230: fb00 33bd b091 2abd 8bff 4abd 9a6d fcbb
00000240: 743e 0cbe 6c90 b8bc dbfa d6bc 560b f9bd
00000250: 1071 29be 8509 d2bd 247f 4ebe 0bd8 eebd
00000260: e33c a33c 636a 7abb 06a2 29bc b0c3 893d
00000270: 5cfc 85bd 41b2 aa3d 7a81 25be dd31 7ebe
00000280: 8068 ea3c 24b6 f5bd 9427 31be 3a75 a0bd
00000290: b286 f0bd 77b9 873d 0417 febd 3137 e7bc
000002a0: d2ef f6bd 79ef 6cbe 0d1e 49be f8e9 78be
000002b0: 3b51 b8bb 581b 40bc 66f0 b7bc f66b 4ebd
000002c0: 0928 e23c 9cc5 163d 3e7d 11bd 8c93 e3bd
000002d0: 268e 48bd f887 37bc 1f3e a4bd 0207 99bd
000002e0: 9982 30be 2e8f bdbd 6005 d6bc bbe8 3bbe
000002f0: 9b63 64be da13 02bd 6b25 dcbc 5f24 65be
00000300: 8d68 59bd f538 1dbe c861 26bd 8503 8dbd
00000310: 0c98 51bd 502c 78bd 0c9b 6bbd e787 a23c
00000320: be1c cdbd 60f1 53bb 9f74 9abe 7c50 57be
00000330: 524d 94bd a0e8 d83d 1fed 83be 5b5a 1abd
00000340: 3204 b2bc 0ab4 7cbe 0d74 05bd 5a16 30bd
00000350: 65f1 a2bc 28ff ffbd 4067 2bbe 3c9a 553d
00000360: f634 35be 7a75 1fbd 0e81 ebbc c3b0 6abd
00000370: a550 c3bc 9c4a 043d c756 133e 3aaf 67be
00000380: dd5d da3b 1648 35be 41ac 09be 20ad 99bd
00000390: 5144 11ba a6e5 0fbe 83b7 cdbc c730 91bd
000003a0: 390f 3abe e356 953b 7eb7 26be 1832 25be
000003b0: ad14 acbd 4896 48be 653b 06be 3273 d33c
000003c0: ec62 fb3b 23c7 dabc 02f3 78bd 7c18 32bd
000003d0: 71c8 49be bf48 e53b 5e20 9fbd b4aa 843d
000003e0: d065 9ebd c7a8 09be 5f0d 80bd 7b9f 54bd
000003f0: 57db f5bd 4b2d 98bd 25ad 44bd b143 063d
0.037680656 -0.1802491 0.030108752 0.01726786 -0.18389796 0.019032883 -0.152675 -0.12251866
-0.09937804 -0.075136684 -0.039021753 -0.05522504 -0.12359502 -0.1787158 -0.22539558 -0.026037639
-0.09065094 -0.18206541 -0.05140927 -0.17121233 -0.23382267 -0.14148426 -0.020846039 -0.19158888
-0.00832837 -0.133295 -0.2040963 -0.05396159 -0.17381391 -0.02761328 -0.13208613 -0.24347727
0.011415186 -0.108963676 -0.3597843 -0.11673748 -0.0645132 -0.057330802 -0.05013614 -0.04095153
-0.11620034 -0.006282753 -0.01006304 -0.11873798 -0.09295141 -0.119035944 -0.12502514 -0.14827637
-0.1738429 0.048424684 -0.04128339 0.0005485211 -0.25779146 -0.04718601 -0.074160725 -0.11418067
-0.022424886 -0.035033405 -0.15049365 -0.25246578 -0.13450043 -0.090056814 -0.1121871 -0.15579754
-0.021117171 -0.13569646 -0.23603316 -0.062059913 -0.10977497 -0.058144942 -0.061213512 0.0027731084
-0.065835625 0.033058364 -0.05259355 -0.04374708 -0.16494977 -0.18958662 -0.030172015 -0.089511774
-0.084621504 0.028693233 -0.15788953 -0.020351848 0.0047373995 -0.1183672 -0.1768114 -0.012870096
-0.2231649 -0.12081677 0.005515474 -0.08059409 -0.14882697 -0.17162292 -0.06934659 -0.08146944
-0.12076261 -0.17085102 -0.180494 -0.028798103 -0.14719808 -0.107828505 -0.3041725 -0.057735927
-0.14355274 -0.044360906 -0.0011602609 -0.01677465 -0.13604282 -0.13543937 -0.1581232 -0.08843752
0.04538709 -0.10032745 -0.053310845 -0.037642524 -0.040142916 -0.15481138 -0.2802419 -0.149713
-0.202348 -0.18523215 -0.032237697 -0.113988996 -0.028194433 -0.032150187 0.023142986 -0.0021778345
-0.13168834 -0.0013462156 -0.057920802 -0.12288732 -0.09515041 -0.02863176 -0.12711966 -0.15154323
-0.17824535 -0.2221209 -0.08481006 -0.17645304 -0.043702107 -0.041642845 -0.04956011 -0.007703495
-0.13695699 -0.022529803 -0.026242664 -0.12160365 -0.16547036 -0.10255722 -0.20165688 -0.11662301
0.019926494 -0.0038210384 -0.010353571 0.067267776 -0.06542274 0.083347805 -0.16162673 -0.24823709
0.028614283 -0.11997631 -0.17300254 -0.07834859 -0.11744441 0.066271715 -0.12406734 -0.02822456
-0.12057461 -0.23138227 -0.1964037 -0.24308002 -0.005624918 -0.011725269 -0.022453498 -0.05039593
0.02760698 0.03680955 -0.03551983 -0.11112127 -0.04896369 -0.011201851 -0.08019661 -0.0747204
-0.17237319 -0.09255825 -0.02612561 -0.18350498 -0.22303621 -0.031757213 -0.026873311 -0.22377156
-0.053078223 -0.15353759 -0.040620595 -0.06885437 -0.051170394 -0.060589135 -0.05752091 0.019840194
-0.10015248 -0.0032339916 -0.301671 -0.21026796 -0.0724131 0.10591245 -0.25766847 -0.037683826
-0.021730516 -0.24678054 -0.032581378 -0.042990066 -0.019890497 -0.12499839 -0.16738605 0.052149042
-0.17695984 -0.038930394 -0.028748062 -0.05729748 -0.023842165 0.032297716 0.14388572 -0.22625437
0.0066640214 -0.1770328 -0.13444616 -0.07503724 -0.0005541491 -0.14052448 -0.02511192 -0.07089382
-0.1816987 0.004557477 -0.16280934 -0.1613239 -0.08402381 -0.19588578 -0.13108595 0.025811765
0.0076717045 -0.026706284 -0.060778625 -0.04348038 -0.19705369 0.0069971974 -0.077698454 0.064778715
-0.07734263 -0.1344329 -0.0625255 -0.051909905 -0.120047264 -0.07430514 -0.048016686 0.0327794

attnM.op.bias f4 [2]
00000000: 700d 97bf f0ef 8abf
-1.1800976 -1.0854473

momentum_buffer f4 [2, 512, 1, 1]
00000000: ae0e aabb af11 973c c7ed bcba 3eb3 023a
00000010: 40b3 4fbb 5220 80ba 336c 1ebc 6ea3 21bc
00000020: 41e0 8cbb ef97 083c cf92 003b 93c0 313a
00000030: 2cb3 14bc 0c7e 0cbc 120f a33c e34c a93a
00000040: 8576 363b cad7 fbba ea35 ee3b d06d cfbb
00000050: 306f 2f3c 0a4c 0cbc 6c7e a4bc 8e8a 37bb
00000060: 90b4 55ba 360b b0bc 687c afbb dc62 3b3c
00000070: 0067 fdbb c3db 97bc 05bc 13bc f56c abbb
00000080: 868d 573b a4e4 dbba e8e9 f23c bea2 bebb
00000090: 05fa 963b e45d d13a e5c7 2ebb 23ed a13b
000000a0: d371 1b3c 00fe 8ebb b292 98bb 18b5 243c
000000b0: 28bf f1bb 154b 65bc 11a7 2fbc 6703 bbb9
000000c0: 28ca 39bc e896 a2ba 10fa 43bb 479a 733a
000000d0: 6430 b13c fc64 0738 1d18 9abc 4a80 ffbb
000000e0: e236 bd3b 0ef6 033b 7dcc 433c e46f 753a
000000f0: eb4e b5bb f333 0cbc d406 94bb 0d15 a2ba
00000100: 78ab f43b 8e9b adbb 4500 ce3c bb61 2f3b
00000110: a5d5 a0bb 5cf3 aa3b 2f56 493b 8b29 9c3b
00000120: 5fdd 333c 095b e9bc cd1b 2dbc 34f5 e83b
00000130: 8c52 c93a c4e6 a2bc b270 64bc 776a 4fba
00000140: d181 103c 7087 0fbc dc23 b73b 5de6 003b
00000150: 7295 0c3a 241c d8bb acf5 053b b8f0 143b
00000160: 020a 0f3c 7a47 1ebc fded 95b8 3feb a83b
00000170: c970 67b9 66bb a0bc acd7 cebc 8ff0 493a
00000180: 6c9e 833b 2ad0 aa3a 7ce8 8c3b 0035 b839
00000190: ba5b f93a 0ba2 9ab9 9ca1 993b da8b fc3b
000001a0: bab2 21bc 5ed7 873c 502f 3c3c eb7e 0fbc
000001b0: d409 a23b e244 f03b 329b 14bc 8b53 223c
000001c0: 3682 b1bc 9e89 b7ba 447c 9f3b 7ddf ba3a
000001d0: a92c 5bbc 8624 15bc fcf8 073c a64c 03ba
000001e0: a2f5 f0b9 fb08 60bc 572b 93bc c320 70bc
000001f0: 8865 973c a970 733b 2f9b c5b9 66ce dabb
00000200: b020 b33a 7078 8cbc 6779 983b bee6 45bc
00000210: d454 1bbb 10ec 723c e969 38bc 5c84 9ebc
00000220: d887 42ba 4a0d 973b a6ac 23bc 68ff 8a3b
00000230: 6b04 3d3a 36e8 dbbb 5d89 b5bb 2ba3 5e3a
00000240: aa92 4cbc b127 573b 2ceb 6eba 9059 273b
00000250: f8dc babb 866b 90bc 1b59 6fbb 241b 66bc
00000260: 1f72 95bc 2a5c 13bc 4363 4a3b ee56 9cbc
00000270: f097 e13b 4a13 9d3b f0cb 2abb 6c02 deba
00000280: ee43 343c 7cb8 34bc ef9b da3b 98dc 2fbc
00000290: 565e cf3a 2895 5cbc be8b 043c fc6d 4c3c
000002a0: 37b1 2cbb f1ac 763b c02d 1eb9 e06c 5039
000002b0: 528e 483b 19e8 f739 fdd4 7d3b 79a9 d83a
000002c0: db18 8c3b 672e a9bc aabf e3bb 1ef2 6ebc
000002d0: f6ff 6c3a 481a ef3b 019c f13b a01c 08bb
000002e0: a00c 9f3c f046 8cbb bed9 023c 530e 12bc
000002f0: cfb7 6bbb 89aa fd3a 0dd4 1f3c d965 833a
00000300: 72b8 a93a 4272 19bc ff34 debb 019e 22bb
00000310: ab68 08bd c870 bebb 5bfc 48bc 721f c6bc
00000320: 2d95 65b9 af59 3b3c c637 bc3c a36f 33bc
00000330: 1d7b ca3b b265 cf3c fd68 f1bb 91ed 0b3a
00000340: a655 12bb 0480 6e3c f593 4fba d15a 8a3b
00000350: 96e6 7c3a c827 c4bb 5c89 b13b c300 65bc
00000360: d544 ebbb 3e33 9ebc 4d97 033c 0995 153c
00000370: dca5 bc3a e228 a13b 9798 6dbc fab7 533b
00000380: c35c 873c 8673 fcbb f8b8 0d3b bc84 1fbc
00000390: 41f5 2fbc 80f3 08ba 2854 9339 c0ed 993c
000003a0: ec4c 6a3b e2d3 143b bb97 cfbb 7a83 72bb
000003b0: 4acc 883a 66e2 b239 8a54 04bc 3b19 39bc
000003c0: e7f4 e8bb 9315 bc3a eddf 983a e0fc a1ba
000003d0: 8b3e b13c e913 053a 0696 2dbb fdb0 4ebc
000003e0: 060f 93b9 ebf9 27bc fadb 873b b9e5 da39
000003f0: 4593 23ba edeb 243b fdc9 01bc 1a31 d53b
-0.0051897382 0.01844105 -0.0014414125 0.00049858156 -0.0031692535 -0.0009775257 -0.009669351 -0.009865625
-0.004299194 0.008337005 0.0019618755 0.000678071 -0.009075921 -0.008574974 0.019904647 0.0012916591
0.002784164 -0.001921409 0.0072696107 -0.0063302293 0.0107076615 -0.008563051 -0.020079814 -0.002800617
-0.0008152211 -0.02148972 -0.0053554066 0.011437144 -0.007733226 -0.018537408 -0.009016995 -0.0052314945
0.003289075 -0.0016776514 0.02965255 -0.00581774 0.0046074414 0.0015973416 -0.002666944 0.004941599
0.009487587 -0.0043637753 -0.0046561593 0.010052942 -0.007377524 -0.013994952 -0.010720984 -0.00035669954
-0.011339702 -0.0012404593 -0.0029903688 0.00092927035 0.02162952 3.2280557e-05 -0.018810326 -0.0077972757
0.005774365 0.0020135674 0.011950609 0.00093626813 -0.0055330894 -0.0085573075 -0.0045174155 -0.0012365893
0.0074667297 -0.0052980846 0.025146613 0.0026761133 -0.004908281 0.005216999 0.0030721535 0.0047656945
0.010978072 -0.028485792 -0.01056571 0.0071093086 0.0015359684 -0.019885428 -0.013942884 -0.0007912288
0.008820013 -0.008760318 0.0055889916 0.0019668557 0.0005362845 -0.0065951515 0.0020440621 0.0022726487
0.008730413 -0.009660596 -7.1492024e-05 0.0051549966 -0.00022071892 -0.019620609 -0.025249325 0.00077033875
0.004016688 0.0013032008 0.0043001752 0.00035134703 0.0019024529 -0.000294939 0.004688455 0.0077071013
-0.009869272 0.016582187 0.01148589 -0.008758287 0.0049450193 0.00733243 -0.009070205 0.0099076135
-0.021668535 -0.0014002805 0.0048671085 0.0014257279 -0.013377347 -0.009102946 0.008299109 -0.0005008675
-0.00045959378 -0.013674016 -0.017965002 -0.0146562485 0.018481031 0.0037146008 -0.0003769039 -0.0066774366
0.0013666358 -0.017147273 0.004653144 -0.012078939 -0.0023701685 0.0148267895 -0.01125572 -0.019350223
-0.0007420755 0.0046097385 -0.009989893 0.0042418726 0.0007210436 -0.0067110313 -0.0055400566 0.0008492942
-0.012486139 0.0032830054 -0.0009114023 0.002553556 -0.005702611 -0.017629396 -0.0036521617 -0.014044557
-0.018242894 -0.008994142 0.0030881919 -0.01908442 0.0068845674 0.004793559 -0.0026061498 -0.0016937978
0.011002524 -0.011030313 0.0066714208 -0.010733746 0.0015820961 -0.013463296 0.008089958 0.012477394
-0.0026350745 0.0037639702 -0.00015085097 0.00019876985 0.0030602408 0.00047284437 0.0038731687 0.0016529999
0.004275424 -0.02065201 -0.0069503384 -0.014584092 0.00090408267 0.007296834 0.0073733334 -0.0020769015
0.0194152 -0.0042809173 0.007986484 -0.008914548 -0.0035967713 0.0019353192 0.009755147 0.001002486
0.0012948646 -0.00936562 -0.00678122 -0.0024813416 -0.033302944 -0.0058117844 -0.0122671975 -0.024184916
-0.00021894714 0.011434956 0.022975814 -0.010951909 0.006179227 0.025317047 -0.007367252 0.00053378294
-0.0022328882 0.0145568885 -0.00079184707 0.004222252 0.0009647397 -0.0059861876 0.005417986 -0.013977232
-0.0071798363 -0.019311544 0.008031678 0.009129771 0.0014392692 0.0049182037 -0.014501712 0.0032305703
0.016523724 -0.007704201 0.0021625143 -0.009736236 -0.010739625 -0.00052242726 0.00028100726 0.018790126
0.0035751415 0.00227093 -0.0063352264 -0.0037004636 0.001043686 0.00034119486 -0.008076796 -0.011297519
-0.0071092728 0.0014349691 0.0011663415 -0.0012358688 0.021636268 0.0005076514 -0.0026487126 -0.0126154395
-0.00028049218 -0.010252456 0.0041460963 0.00041751357 -0.00062399014 0.0025165037 -0.007921693 0.0065060975

momentum_buffer f4 [2]
00000000: 94b6 343c 9afb f23a
0.011029858 0.0018538118
